Model: "sequential"
_________________________________________________________________
 Layer (type)                   Output Shape              Param #
=================================================================
 conv2d (Conv2D)                (None, 150, 150, 32)      896
 conv2d_1 (Conv2D)              (None, 150, 150, 32)      9248
 max_pooling2d (MaxPooling2D)   (None, 75, 75, 32)        0
 conv2d_2 (Conv2D)              (None, 75, 75, 64)        18496
 conv2d_3 (Conv2D)              (None, 75, 75, 64)        36928
 max_pooling2d_1 (MaxPooling2D) (None, 37, 37, 64)        0
 conv2d_4 (Conv2D)              (None, 37, 37, 128)       73856
 conv2d_5 (Conv2D)              (None, 37, 37, 128)       147584
 max_pooling2d_2 (MaxPooling2D) (None, 18, 18, 128)       0
 max_pooling2d_3 (MaxPooling2D) (None, 9, 9, 128)         0
 flatten (Flatten)              (None, 10368)             0
 dense (Dense)                  (None, 512)               5308928
 dropout (Dropout)              (None, 512)               0
 dense_1 (Dense)                (None, 512)               262656
 dropout_1 (Dropout)            (None, 512)               0
 dense_2 (Dense)                (None, 53)                27189

=================================================================
Total params: 5,885,781
Trainable params: 5,885,781
Non-trainable params: 0
_________________________________________________________________

Epoch 1/15
177/177 [==============================] - 453s 3s/step - loss: 3.4940 - accuracy: 0.0985 - val_loss: 2.1713 - val_accuracy: 0.3750
Epoch 2/15
177/177 [==============================] - 439s 2s/step - loss: 2.0332 - accuracy: 0.3940 - val_loss: 1.7724 - val_accuracy: 0.5521
…
